backend/model_weights.npz (npz, 876526 bytes, 6 tensors)

W1 f8 [128, 784]
-0.0028251216032772544 -0.041313467933432456 -0.018938272139864522 0.026171781624612443 0.09057403379414994 -0.012624459041907852 0.042879357421267944 0.02541868408836245
-0.0496709698570956 -0.1239516842753848 -0.03966205534014565 0.04185878705590462 0.14692829580026676 0.025063952509977803 0.0944039381907883 0.026875104898202308
-0.025461394474682604 0.015726467224823446 0.09623550193149837 -0.017228656773547867 0.015267001623175892 0.08069629853099919 0.017921908208622214 -0.09072782602447005
0.0013485919379044357 -0.08549306883297915 0.04681130250637866 0.006159528954234155 -0.047461686652263635 0.004773188151661844 0.07698232956008301 0.0639080940738926
-0.004515241708932859 0.03060223534438729 0.10643085708728563 0.008031855998670132 0.020794350830628947 0.03826460171024542 0.07536293602558825 -0.060275054952359644
-0.02295877083082284 0.0662539695754455 0.08935766548549358 -0.0834228047039666 -0.03843293485694588 -0.015403246818262415 -0.039908826001879685 -0.0799334973685053
-0.04860033207792464 0.013037902812234102 -0.08828400383724261 0.05428498228003577 -0.04592254216859831 -0.07150684098056782 0.010013970145072167 0.028782112165188462
0.05832189671802591 0.01226778123766311 0.048073324394829454 0.002720453369841302 0.09382504905494814 0.01924019797813052 -0.06129890235736047 -0.021996585215324167
0.014677594789062706 -0.02186951506584442 -0.054519752637214224 -0.005910725952102217 -0.04174464396330347 8.377822305680597e-05 -0.017728977840632293 -0.03493949235063065
-0.02736019981357701 0.07146220771773906 0.0561599062978841 0.012930947959840301 -0.04758932779453736 0.01924532758162284 -0.07545781970667297 -0.07043710887910133
0.07561587287322519 0.06595838646927911 -0.014112300038592075 -0.05456621846152566 -0.06704363640076601 0.003562108361424268 0.015161430874541162 0.013284054119496213
0.023762675295957176 0.07135944181946972 0.01021965793403134 0.025046112791543056 -0.04425155170510326 0.01905164312093878 -0.04614502993250168 0.0013656711408536676
-0.006476888695261623 -0.03746921791552283 0.0056331506869906015 -0.04616438858934531 0.05373800354142318 0.010933663958820667 0.03725595721174191 0.01692546329348904
0.021054644216702906 0.0049859275023388825 -0.06997408634767563 -0.07037327309971422 -0.054106691959289965 -0.018214474247367864 0.0029215746139419434 -0.026268777645608355
-0.04872559291854548 0.057810319817045236 -0.01715594897782273 -0.020489159005744665 0.121243994471796 -0.0769668154121622 -0.061491348231130394 -0.019996948561454644
0.053001250245719785 0.03243840750628358 0.08192845389211159 0.010031548917296013 0.0006201224412566979 -0.020564068554868913 -0.0428332610103845 0.0729622778550128
-0.03751073626480463 -0.06744241844054147 0.02011032256564134 0.0724472572863108 -0.0048502207282977074 0.02701798321878825 -0.012962152556573375 -0.0037932687367017853
0.015955097567630208 0.0697653547450813 -0.05864791839894391 -0.02726103101577411 0.10781425145202696 0.00999361762193845 -0.08208533472886485 -0.032474356705145015
0.03204319192657255 0.016216476083638773 -0.009446788435061866 -0.018757581274032365 -0.042221083295497785 -0.021254294239966273 -0.0815272662165105 -0.044009952882753306
0.027908190105694123 0.040599002180371185 -0.08338439768665888 -0.023463829754769204 0.07265252937288458 0.00678087125806305 0.017476898516558873 0.13130472642522928
0.028057847553442018 -0.12375986764358883 -0.007507041202163801 -0.0492865639884007 -0.02726763660665486 -0.01105380735499029 -0.05925177054932825 -0.055691162032725325
0.08889266281121208 -0.06709637652498783 -0.00015973994935158082 -0.02814855649576949 -0.03188342157757792 0.0009620067761226751 -0.0352370782678442 -0.016903102729413543
0.01264013452245461 0.046396050636093436 0.1586591660273344 -0.03757532272747619 0.04918850156375569 0.01368778196539225 -0.03178378254637458 -0.05955497791343693
-0.03574869206368958 -0.04961574853878588 -0.02789946089974419 -0.004809386693255888 -0.05637047303077677 -0.07054322212494361 -0.09769766806401048 0.04502136637904345
0.01881536444022032 0.019478995497780014 -0.028146923688737446 -0.012367571543128677 -0.002310203152027818 0.10306573558226052 -0.06281958755167598 0.03317350480047577
-0.04543453555456682 -0.0027464013285149885 -0.10394907152187047 -0.05092176222131079 0.07015057100364462 -0.04308471325441738 -0.08129252139232533 -0.058817830820352475
-0.03159335412201445 -0.0071139809834646645 -0.0022787069791965335 0.027435449394941525 -0.018730899378430806 -0.023721708354289026 -0.017971308949268735 0.01680121165134902
0.10682434185864735 -0.017417615477262824 -0.04022007568532086 0.053304968361198135 -0.036039232662992686 -0.03593063409042296 0.03905547694877606 -0.0923570097425229
-0.13095466991377486 -0.04530296587108769 0.06428034625306193 0.028838572064355954 0.036578321605585995 0.09588308783869152 0.08967921758628841 -0.06110086180248525
-0.004252035872973699 -0.02389354793206066 0.026513313218122933 0.044078663554918525 -0.10350670950337718 0.07378488998707165 0.0020404722101236418 0.04604466452023039
0.005490616019166172 -0.025355869891714535 0.01293547617535432 -0.10245862871081032 0.009551342217963594 -0.06005392550651956 0.010406987067603663 -0.02142880428062465
-0.03147816882282346 0.08909807349772958 0.01176568341087474 -0.006294841905940369 0.014428404858449451 0.013049990055903073 0.064542602413655 0.08871316391802608
00000000: 90e7 959c b524 67bf ab1e 51f3 0927 a5bf
00000010: ba11 efed 8d64 93bf a680 9f88 c6cc 9a3f
00000020: 863e 0321 dc2f b73f 25ad b735 dada 89bf
00000030: 947e 987b 48f4 a53f 5fad 7703 5b07 9a3f
00000040: 5c93 312e 796e a9bf 8634 3f2e 4cbb bfbf
00000050: 7ef8 27bd 954e a4bf 2022 e9d2 836e a53f
00000060: 3bda a8e0 8bce c23f f6fb 5a61 5daa 993f
00000070: 589e 2443 db2a b83f ba17 75c2 2585 9b3f
00000080: 7238 5142 8d12 9abf 4c20 a659 991a 903f
00000090: cb8a 82cd e3a2 b83f 16e9 9595 63a4 91bf
000000a0: daa7 6f45 4e44 8f3f 2451 193b 83a8 b43f
000000b0: cf41 8de6 1e5a 923f 28be 9c55 f039 b7bf
000000c0: 1675 3691 6718 563f 511d acae dfe2 b5bf
000000d0: d034 b2aa a6f7 a73f b9da acf6 bb3a 793f
000000e0: b80c f8ef e54c a8bf 8c09 25f0 0c8d 733f
000000f0: 6998 d42b 1db5 b33f 553f ffe5 475c b03f
00000100: bf0d 93f7 927e 72bf b55d f43f 3156 9f3f
00000110: e1a2 797a 0d3f bb3f 2548 b976 0173 803f
00000120: f951 0943 1d4b 953f b743 e1f9 6a97 a33f
00000130: 1c79 8f41 fc4a b33f e2e9 913b 5fdc aebf
00000140: 97bc 7f07 8182 97bf 0985 8e28 05f6 b03f
00000150: e537 e8da 24e0 b63f 9ab2 f169 325b b5bf
00000160: 008a 994c 7bad a3bf 3277 b1ca bc8b 8fbf
00000170: 6ae9 fffc ed6e a4bf 5079 0d8d 8576 b4bf
00000180: f9e7 b289 24e2 a8bf 1feb 7eb1 9db3 8a3f
00000190: 54ab 3dcd c799 b6bf e206 1dbf 3dcb ab3f
000001a0: a8d0 86d1 2883 a7bf e9a9 73b7 454e b2bf
000001b0: 24ab 3552 3482 843f a54f d6d9 0e79 9d3f
000001c0: 41d7 161e 5edc ad3f 2c95 aeb9 d91f 893f
000001d0: ddec 2b18 119d a83f 32d0 1e48 3449 663f
000001e0: af91 3c1d eb04 b83f ccaa 56d4 b3b3 933f
000001f0: a1a5 cfd9 9162 afbf 5275 7ed8 4586 96bf
00000200: f8de d26c 490f 8e3f 98df f24f f664 96bf
00000210: 332d 2055 03ea abbf aaf0 8e6a d835 78bf
00000220: f10a 36d1 8d5f a5bf 3219 9fe9 42f6 153f
00000230: d86e 1190 8b27 92bf d037 f8d1 96e3 a1bf
00000240: ef35 a5ed 4f04 9cbf aa32 0ce5 584b b23f
00000250: 1aab cac1 fdc0 ac3f 0716 c074 8a7b 8a3f
00000260: 5b46 08dd a05d a8bf f068 4112 0cb5 933f
00000270: a71c de23 3451 b3bf fd7e 0f97 2a08 b2bf
00000280: fc8a 0cd5 8f5b b33f c950 c818 a6e2 b03f
00000290: f4c3 18d9 e8e6 8cbf 016d 8477 1af0 abbf
000002a0: 4d07 bf91 c529 b1bf 5317 595d 482e 6d3f
000002b0: 8e3d 22ce f40c 8f3f 5322 0390 ab34 8b3f
000002c0: b5e1 0b25 3e55 983f a71c e0c4 9c44 b23f
000002d0: bde2 d244 0bee 843f 2e90 532d b0a5 993f
000002e0: a9c8 bdae 23a8 a6bf e4d7 8e20 4682 933f
000002f0: deb6 dd44 52a0 a7bf df8c c538 0a60 563f
00000300: 6c04 0492 8287 7abf 9194 1b53 2a2f a3bf
00000310: bac4 955f c912 773f 4a4f 76d6 dba2 a7bf
00000320: 7a86 862f 8c83 ab3f 7d59 0789 6364 863f
00000330: 8078 9c7b 3613 a33f 90bf 429d e854 913f
00000340: 65ce 5b41 598f 953f b31d 01b9 1f6c 743f
00000350: 6e45 6e5c d2e9 b1bf b2ca 799a fb03 b2bf
00000360: 9077 eb50 dfb3 abbf da3a d3ac d0a6 92bf
00000370: 1338 6e6d fcee 673f 0d3c 93d3 33e6 9abf
00000380: fd70 2098 8ff2 a8bf c494 f871 5099 ad3f
00000390: 6c97 2a3f 5491 91bf a1ab 682f 1cfb 94bf
000003a0: afbf 17af d809 bf3f b78f 12e3 18b4 b3bf
000003b0: 8880 4743 cb7b afbf 876e 5d80 147a 94bf
000003c0: 41ab e7d8 fa22 ab3f e163 bf56 c49b a03f
000003d0: 2a16 145e 43f9 b43f 9d5d 39b4 6b8b 843f
000003e0: fa3d 67cd f651 443f 3ed8 a947 bf0e 95bf
000003f0: dbf6 70be 3dee a5bf 249c 3ae5 a7ad b23f
00000400: e32e 0373 9b34 a3bf bab5 9005 e843 b1bf
00000410: b4fe ece6 cc97 943f 3cc7 ba48 e78b b23f
00000420: 36b2 8036 d3dd 73bf 4575 5029 9aaa 9b3f
00000430: b0ab 87aa e68b 8abf a00c 69a5 0f13 6fbf
00000440: d4a3 0779 8856 903f 6a22 066d 24dc b13f
00000450: 62fe 0097 1907 aebf f405 acd2 50ea 9bbf
00000460: 1978 07fc b699 bb3f 9df2 d6a6 8877 843f
00000470: a345 2464 8b03 b5bf 75b4 0398 7aa0 a0bf
00000480: 2ea6 c41a f767 a03f 890c be49 0d9b 903f
00000490: 44ec 0b7b d658 83bf fd01 7ff8 2f35 93bf
000004a0: d065 e977 009e a5bf bf0f a48a afc3 95bf
000004b0: bfd7 218e f8de b4bf 1cec a8f8 7888 a6bf
000004c0: 4193 2def f693 9c3f b4d7 3a75 64c9 a43f
000004d0: 6394 0f0d ae58 b5bf d619 bef5 e606 98bf
000004e0: f0d2 a02d 5b99 b23f 0f14 ab44 42c6 7b3f
000004f0: a1ab 41ce 76e5 913f 3c3e e7e0 97ce c03f
00000500: ea80 8d46 32bb 9c3f 0925 1608 baae bfbf
00000510: db8f 3f07 b4bf 7ebf b0be eca8 163c a9bf
00000520: 3bf3 db1d 0cec 9bbf c20f b0e8 60a3 86bf
00000530: 9b9a 7a81 3f56 aebf 76ad 364f 8d83 acbf
00000540: 1ee6 a067 abc1 b63f 5bdc da66 3a2d b1bf
00000550: c3fe 76b7 fbef 24bf 35d5 50a6 f9d2 9cbf
00000560: 8ba9 eb19 0653 a0bf c64f 2cd2 e585 4f3f
00000570: 05b2 8825 980a a2bf 03ee b105 0c4f 91bf
00000580: c3bb 2023 12e3 893f a289 4a20 39c1 a73f
00000590: 0726 a68c f14e c43f 7d97 809c 123d a3bf
000005a0: 6674 1c3b 3c2f a93f 914a 2bff 5608 8c3f
000005b0: aee2 28c5 f645 a0bf 9688 e774 fd7d aebf
000005c0: e09e 930e a74d a2bf 0a69 ae42 3c67 a9bf
000005d0: 6acd 8f20 ad91 9cbf d74b fbe8 01b3 73bf
000005e0: 1b25 4134 97dc acbf 2329 fbdf 1e0f b2bf
000005f0: c0fa 3ae1 b602 b9bf 553e 7060 0a0d a73f
00000600: 1476 bbbb 5544 933f 69d2 7c42 4df2 933f
00000610: f08f e712 8cd2 9cbf 212c 785a 2b54 89bf
00000620: 41bd 85df d8ec 62bf 69fb a91b 8462 ba3f
00000630: 0329 15ca f114 b0bf 8169 6c1c 1efc a03f
00000640: 56b2 a108 3243 a7bf e0bb 67fc 9e7f 66bf
00000650: ced0 a206 689c babf 095a cace 6a12 aabf
00000660: 17a2 4148 63f5 b13f d940 c514 330f a6bf
00000670: 4717 ca30 96cf b4bf 0914 97e7 5e1d aebf
00000680: 0d33 730d 012d a0bf 428c b1ba 8c23 7dbf
00000690: 1d78 7d7e cbaa 62bf 30fe 9bd7 0918 9c3f
000006a0: cf25 0561 312e 93bf e901 59e6 804a 98bf
000006b0: af4d d020 1267 92bf 1289 4d3a 5634 913f
000006c0: eb19 b30e d758 bb3f dc86 6563 ecd5 91bf
000006d0: 0515 6ccb b997 a4bf 00bd a6ef c94a ab3f
000006e0: 8f2b 52fb bb73 a2bf cf91 af04 8065 a2bf
000006f0: 9c08 7358 14ff a33f 7686 6680 b5a4 b7bf
00000700: b6e1 4464 1fc3 c0bf 1a00 a849 f331 a7bf
00000710: 83b5 ee40 ad74 b03f abdc 84cf db87 9d3f
00000720: 68be 13ce 64ba a23f 7bb5 8146 cb8b b83f
00000730: 62fa a99a 37f5 b63f 18ef 65b6 9c48 afbf
00000740: 55e2 4030 956a 71bf de7e d0db 8c77 98bf
00000750: ecc5 b854 4e26 9b3f 11eb d684 7a91 a63f
00000760: bacb 3b6c 6a7f babf 4ff5 6e09 91e3 b23f
00000770: 5fe9 252d 2eb7 603f a313 8a90 2a93 a73f
00000780: 409f cb03 547d 763f 1743 c99f e3f6 99bf
00000790: d2f8 0c39 ea7d 8a3f 1685 818b ba3a babf
000007a0: 7726 ac73 a78f 833f 2106 185c 63bf aebf
000007b0: b78e d728 4250 853f 1e88 4fb6 6ef1 95bf
000007c0: aa94 4313 e81d a0bf c031 cf9f 21cf b63f
000007d0: 5ae7 b74b 9b18 883f 3b7d e9c1 9ec8 79bf
000007e0: cdff 00b8 a38c 8d3f e19c 0604 f4b9 8a3f
000007f0: acbc 902e dd85 b03f 00ab c0e9 e7b5 b63f

b1 f8 [128, 1]
-0.009539631085373193 -0.004501499714507217 0.023390202572333197 0.041101072794748235 0.012585334746507143 -0.039541860037588646 0.015174096261139044 0.03226443897134952
0.08983883685297137 0.03909493234139419 0.02690346997284298 0.0056659024951188075 0.0030596239157903915 0.0019464626009144295 0.003923416214529724 -0.021271053164693767
0.014058160482866393 0.0024810413972753504 0.015194214133557787 0.04341963912988114 -0.0025607347172415416 0.03235642217817739 0.03421457858720505 0.023344570676417726
-0.007670706179968404 0.0035352977502161537 0.03983174138633048 0.01200614869669594 0.009953191420643319 0.018932472003995397 0.030561088266159196 0.0014640940072823013
0.007517279015175915 0.019125923744350227 0.03342481829407465 -0.009025056222231395 0.023544302530636708 0.03300673693145163 0.006985638234973672 0.04708716593787275
-0.009845367145305251 0.04808351484592867 0.04009966620042165 0.008419000395411427 0.02186816096798531 -0.04110507634987983 0.06789699004706241 0.01201364725268376
0.06078264301454796 0.054355835392138584 0.05098402021863538 0.042548928631471396 0.04070573461237933 0.029305481070263963 -0.01293238704584705 0.008180765835387054
-0.009440536978911444 0.016788860053794874 0.08165194242801228 0.056942622966696756 0.008907976915191908 0.016197112904638274 0.034432194810176966 0.011146660876792112
0.024590250351184357 -0.013343073260105988 -0.022459905369485302 0.011704563618930382 -0.0316873068077218 -0.01449132373470398 -0.006229293104739076 0.02425696854335698
0.03376155654148433 0.021350982204080816 0.003912792945389727 0.005033874355376104 0.019411081263196652 0.02467141713530044 0.05659679819637704 -0.010003441616352965
-0.018935256671425003 -0.03482627527913249 0.007969146308760307 0.0486041966436555 0.029718947379529313 -0.004198891571189605 -0.00014875988601520995 0.036100943082632043
0.04172731760717303 -0.00681018278471314 0.0011377643479741882 0.04549287723710464 -0.010383899192315938 0.028584929934821295 0.06062020492310068 -0.021817631081745097
-0.011980336964522957 0.014800403972946323 0.015161867250803677 0.03210503270490005 0.027005919190058833 -0.006029661628644654 0.006409187915258418 0.010804644773928526
0.024189525654117375 -0.014526248751157848 0.015894427357051686 0.03517053090629724 0.01925894466743047 0.04853220174683655 0.06896610700679971 0.002464373039864492
0.09149132140847402 0.004906881507586746 0.013212053862400562 -0.0050625051445457505 -0.004809381433657175 -0.007051202372061217 0.0410974421319577 0.006186184917224742
0.10176795398249225 0.02640904164400484 -0.013830964243344119 0.0014262432829090011 0.00426055751761416 -0.007887512263946227 0.06441764840196695 -0.0008825180799872912
00000000: 5b7d 389c 8389 83bf 197f e820 2a70 72bf
00000010: 0d44 61ec 99f3 973f 79c9 f726 330b a53f
00000020: 43e7 2909 57c6 893f 9170 5ea7 d43e a4bf
00000030: ebea 80b9 9813 8f3f fa55 69ec f684 a03f
00000040: 8ab6 3192 adff b63f 34f5 b03f 4004 a43f
00000050: 3ea7 ba4e 958c 9b3f a0a6 b31e 2135 773f
00000060: ee0e 0115 7f10 693f 5323 af4d 0ee4 5f3f
00000070: 6daf 4705 0012 703f 377d c636 14c8 95bf
00000080: dc6b 205c 86ca 8c3f 1688 29f5 1e53 643f
00000090: 301f 56e6 241e 8f3f c348 2254 193b a63f
000000a0: 6637 a8fb 3ffa 64bf 4545 245e 0591 a03f
000000b0: e72c 28c0 9284 a13f c5a3 609e a3e7 973f
000000c0: 440e e282 516b 7fbf 726a 0087 0ef6 6c3f
000000d0: 7dac 3175 d364 a43f 4d99 0600 ae96 883f
000000e0: 3cd2 23bd 5662 843f 01bf 5bb0 0863 933f
000000f0: d985 88ea 674b 9f3f cb7f 4af8 dafc 573f
00000100: 4dc2 6638 70ca 7e3f 0d7b f303 bf95 933f
00000110: 2445 e5ca 0e1d a13f 8b67 8d8a ba7b 82bf
00000120: 6d3e 8165 ff1b 983f 3226 564f 42e6 a03f
00000130: 85a4 2cfc f89c 7c3f 0e6b 871b cf1b a83f
00000140: 3ae5 3fcf ce29 84bf 82e0 7a07 679e a83f
00000150: 8799 d285 f187 a43f 7b0b e81a fb3d 813f
00000160: 2b82 b970 9b64 963f 53a0 3e7d b90b a5bf
00000170: 89bc bf77 b261 b13f 9599 7270 9c9a 883f
00000180: 02e8 d20f e71e af3f eb44 b62e 87d4 ab3f
00000190: 0450 ead6 931a aa3f 8d6d e721 f9c8 a53f
000001a0: 3bf3 d6cd 61d7 a43f 7a4c 298b 4102 9e3f
000001b0: e777 5e9b 4b7c 8abf 36f7 c0cd 13c1 803f
000001c0: 7c19 a66c 8f55 83bf 8001 7953 1931 913f
000001d0: 9518 6246 24e7 b43f 45e5 c75e 9527 ad3f
000001e0: a1b5 316c 583e 823f b233 dcd8 f995 903f
000001f0: aa46 47bd 18a1 a13f 1f45 677f 0fd4 863f
00000200: 4533 3cc4 2f2e 993f 4707 3efa 9c53 8bbf
00000210: a7fd 21bc baff 96bf 9176 a8ef 8ff8 873f
00000220: cffd df94 5139 a0bf 0963 218c a0ad 8dbf
00000230: 81c4 9722 e383 79bf 1612 609a d1d6 983f
00000240: 985b 6ada 3149 a13f 1d4d 3729 08dd 953f
00000250: 1493 c85b dc06 703f b8fd a75b 669e 743f
00000260: b75b d29c 7fe0 933f 48e6 f7c6 7643 993f
00000270: da9d 9f6a 41fa ac3f ddaa b734 af7c 84bf
00000280: 969e 9490 c363 93bf 6d11 bbe2 bfd4 a1bf
00000290: f170 2fb6 2052 803f 27d2 1036 a6e2 a83f
000002a0: e638 44cc a46e 9e3f 9fb2 a45f db32 71bf
000002b0: dd38 d7b0 8d7f 23bf 2511 caa3 d27b a23f
000002c0: 59fa f170 485d a53f 1027 7185 fee4 7bbf
000002d0: f50f 912a 21a4 523f 865d dea7 d74a a73f
000002e0: 6dd7 7c5b 2744 85bf 3bfe e92c 5e45 9d3f
000002f0: eb39 3e8b 9c09 af3f 8b9f e36f 5c57 96bf
00000300: 4957 a99b 2589 88bf ef4a 4098 ac4f 8e3f
00000310: 2f70 e85f 2f0d 8f3f 2e55 0223 1270 a03f
00000320: acfe e08e 70a7 9b3f 3efe 03f8 8eb2 78bf
00000330: 4cd9 d647 8540 7a3f 8b63 97df be20 863f
00000340: 045a 5c96 23c5 983f cfea 8e1a f0bf 8dbf
00000350: 59ad bff6 a046 903f d80e 0d30 df01 a23f
00000360: 3723 02e6 9db8 933f 5a6f 9c76 36d9 a83f
00000370: 8f6b 2046 c3a7 b13f 3f47 9033 2a30 643f
00000380: 5e35 51a9 f96b b73f d95e 9bf9 3c19 743f
00000390: 0c19 04da eb0e 8b3f 76a9 81e0 6bbc 74bf
000003a0: 0975 8b7f 00b3 73bf db20 5eb9 b8e1 7cbf
000003b0: a7e0 cf53 b90a a53f 55fa 805e af56 793f
000003c0: 1eb9 22f2 760d ba3f 0704 b8c8 f80a 9b3f
000003d0: 9d49 c798 6853 8cbf 9a22 6610 195e 573f
000003e0: b2cd 36b3 8473 713f 397a c3f9 5327 80bf
000003f0: e0f2 2bcd ac7d b03f ec93 5525 19eb 4cbf

W2 f8 [64, 128]
0.23491126904433882 0.077155768887694 0.20093749878900619 -0.17234731837202688 0.10542175322527349 0.05076862981502548 -0.024808597834476896 -0.018835153031300608
-0.05561640115255905 0.37927038261620605 0.11082877521858486 0.18280633151583928 -0.1616260004393967 -0.14423489425462432 -0.1113865685214123 0.06332549638397028
-0.04285890416027234 -0.12118484433217123 -0.13624679661693842 0.2425690280563447 0.040919895381112126 0.05767935556381699 0.015540003938726541 -0.20666892125961087
0.23123160647014357 0.14638187467071756 0.10546906769297075 0.03994809927280489 0.038519388499473645 0.004808308321301859 -0.06919173587925127 -0.08979416491539928
-0.0598135197752122 0.0753690650286722 0.3448012152180829 0.12689569965319777 -0.03085377680328899 -0.1741414366118984 0.008426610528145492 -0.020751080552270023
0.006205038847087318 0.06947307015335936 0.01997270832481618 0.15163398872582906 0.1904050508997292 -0.08675752336246559 -0.10042601532822062 0.043792411008188356
0.16416724316446565 -0.08190769965148294 -0.009140280425504708 -0.1785238317465904 -0.028241322688421572 0.07145844060166288 0.07981005323974012 -0.08107903560394286
0.07357116175791066 -0.03554532953649492 -0.27458151157607624 -0.004924067558503906 -0.16239842623413306 -0.01611952929452997 0.15490986692435557 0.07683841708717563
0.12970023514485698 -0.007585972134413846 -0.13819594889958595 0.094226833086345 -0.11707917074104561 0.35718933550507265 0.04992989549278468 -0.06805946536775302
0.08817154344167356 0.06061323483433805 -0.037146911001517395 -0.06688857568198239 -0.24398663069448065 0.02675263692033265 -0.16267420294998017 -0.09311373975395461
-0.17764835278652924 -0.13530433597359418 -0.11673524560535523 0.31217608151634374 0.2551116392014689 -0.16787804776804266 -0.10952458602070674 0.11733732856111108
0.33220198442731086 0.14474227300053388 0.02961580691167693 0.1474751149399751 -0.10161497671482304 -0.12625909192532828 0.03293223973467734 0.058766598520022334
-0.07131589422118902 -0.2539034885656657 -0.019661440529948022 0.13245158841372429 0.13244943652581237 0.2015846580664752 -0.019405589607264302 0.016359051053268292
-0.0447234758481235 0.10202054625481327 -0.1287251375076364 0.16599246807935417 0.08624683765015713 -0.1868321778883586 -0.007847193463150576 -0.10266001182002958
0.21564634996777401 0.004402235316284331 0.05291282940820126 -0.050930081707399724 -0.19369581843455894 0.17520944325029056 0.26520840059356376 0.06997587288912213
0.25956040997483 -0.17021585578732312 -0.12774267383999066 0.2279392652955309 0.19089182938356106 -0.017501522459088863 -0.05682984221901987 0.056329016625146576
0.1016580278121392 0.09217435154619273 0.03680649830288224 -0.21335913525707897 -0.1365595090061871 0.07544874548530751 -0.13483082181239436 0.01798219513308863
0.164317966030935 -0.19828969189974752 -0.23151791886697579 0.06569503617279454 -0.02234342921980098 -0.10972144754374753 0.0041246045740284745 0.017106866497885932
-0.12763402158435763 0.10608352261151988 -0.16072635683845046 -0.08257303411203085 -0.288090984053666 -0.16127863689636338 0.005190237783921711 0.27110003107496883
-0.11802568604785496 -0.005747997091865981 -0.08125339913934086 0.0033627965601406118 -0.19570911942339153 0.12510265031915513 0.12776692094842168 -0.07590287299586394
-0.24067074736799435 -0.17440785163346592 0.08314957486607971 0.1215554220995763 -0.14566709346492768 0.07402806759497128 -0.21191756353491736 -0.2126205609211171
-0.18083651624272754 0.11523833100499976 -0.043243674967920254 -0.07416919053248243 -0.0744586451532945 -0.04015969030166707 -0.143561275385628 -0.11971051584806086
0.05888916413796556 -0.01887969938423118 -0.010445750627315996 0.06791702485258722 -0.07182596202347954 0.0025532053038752993 0.23397560320144034 0.06688778861228305
0.027959352029404742 -0.04002216572017071 0.05501117530848134 0.05510204245494306 0.02296419744181274 0.20781028647189181 0.10865055309945235 0.012292725964761667
0.08047625225893822 0.1163247045899718 -0.019733882889389334 0.2782676439074191 -0.1792493666776594 -0.07140713416371995 -0.0312817720090037 0.08831959892523945
0.013207671685987745 0.028517239417149003 -0.1193070160244781 -0.31647516589083746 -0.1327269226717878 -0.12935489421605606 0.05694209977218618 -0.036639475649448576
0.05980560052979991 -0.026330154922019077 -0.09620555818739011 -0.057360931302429564 0.011492538983654118 -0.10756637208867087 0.021073648137744053 -0.07264223144400361
0.0632981006260852 0.017767840363607287 -0.13429606028362054 -0.21078006132822005 -0.039879643737637624 -0.2448279785435926 -0.06674029358184283 -0.06250463303913703
0.027612713618937766 -0.041398053579894095 0.0622161086043422 -0.017779553028410205 -0.12451612832286658 -0.1760997123193044 0.2741505469141771 0.05270467443908586
-0.006453316696205422 0.12148314029556599 0.10167355399551158 -0.010561432823891713 -0.16141212904324917 -0.1516877231472843 0.08749793086499318 0.04245652172100516
0.13299459109893683 0.04919059787617483 0.1168273616277649 -0.1624774450981164 0.019257033010488728 0.14840083434292295 0.1668782211207056 0.38299460099468985
0.07944702269936148 0.05303506229479873 0.11346857741978236 0.09717165078230966 -0.34838832751008536 0.20387983490569947 0.21287084586209065 0.058108015079290976
00000000: f5ee 008d 9211 ce3f 6d04 1200 7bc0 b33f
00000010: 7e5e ebe8 51b8 c93f 2407 fb17 7a0f c6bf
00000020: 61b8 6386 ebfc ba3f 6dc0 6f89 58fe a93f
00000030: a94d 6fd1 6c67 99bf ec6b 23b9 8549 93bf
00000040: 1f96 24c0 c079 acbf 8c64 6b48 f745 d83f
00000050: b401 054d 465f bc3f a95e aea7 3266 c73f
00000060: d505 0929 29b0 c4bf 2800 e2fc 4976 c2bf
00000070: 6a5c 0385 d483 bcbf c4dc f887 1936 b03f
00000080: cae9 6b2f 9af1 a5bf 5f72 2d4f f805 bfbf
00000090: 1dc7 d3f7 8870 c1bf 0b23 437d 800c cf3f
000000a0: 08d2 d5d8 73f3 a43f 1116 9a03 2688 ad3f
000000b0: 7284 9205 70d3 8f3f af6e f490 2074 cabf
000000c0: 9e9f cb4d ff98 cd3f 320d 382a a4bc c23f
000000d0: 8b1d 7b54 0500 bb3f 76ff d3c7 1374 a43f
000000e0: 1cfc bb33 d0b8 a33f 8241 d36f e0b1 733f
000000f0: 1d3e c1b2 8cb6 b1bf d1ea ae19 c0fc b6bf
00000100: 6f1c 96ae e09f aebf 6da1 6d15 634b b33f
00000110: f1e4 be1d 3911 d63f 1fbb 0148 1e3e c03f
00000120: 3016 50e9 2198 9fbf 2433 903f 444a c6bf
00000130: 2b7c 1385 f841 813f 9b8c 5071 c53f 95bf
00000140: e6c9 b26e 746a 793f 99ea 42b4 fcc8 b13f
00000150: 7041 45c4 b973 943f 4e0d 4517 be68 c33f
00000160: 46c4 4d55 315f c83f 3214 86b5 bd35 b6bf
00000170: e296 80f3 84b5 b9bf 96b2 2f7a f56b a63f
00000180: 49a1 3ba6 6e03 c53f 9130 4b2b e7f7 b4bf
00000190: 6cce 07ac 23b8 82bf 4d40 7471 ded9 c6bf
000001a0: 55c6 5e15 4beb 9cbf db44 68b1 194b b23f
000001b0: 1184 8e80 6e6e b43f 4466 4f7e 98c1 b4bf
000001c0: cfcf ad45 8fd5 b23f 0003 c557 ff32 a2bf
000001d0: 328d 1355 be92 d1bf 5779 0852 422b 74bf
000001e0: e579 ccbc 78c9 c4bf 3e72 964c a381 90bf
000001f0: e747 2226 16d4 c33f 6f40 77b8 aeab b33f
00000200: 9d86 1d6e 049a c03f 2a5d 9ce3 7712 7fbf
00000210: fb50 7ba4 67b0 c1bf d4f1 82ee 3f1f b83f
00000220: bb26 6089 e6f8 bdbf 415a 9ea8 30dc d63f
00000230: 1dea 7748 6990 a93f fb0f f059 586c b1bf
00000240: a913 8507 6992 b63f a7f1 a2aa b208 af3f
00000250: d741 cc7f eb04 a3bf f2b6 0715 9c1f b1bf
00000260: 2f3c bf33 f43a cfbf 134d 9e12 0b65 9b3f
00000270: 1959 c91e 82d2 c4bf 752e 0d53 4dd6 b7bf
00000280: 5c05 b464 2ebd c6bf 19bd 0109 a751 c1bf
00000290: 1260 2a6e 5ce2 bdbf 2d31 2d63 b1fa d33f
000002a0: afc0 ccc4 bf53 d03f 1aa6 7022 077d c5bf
000002b0: ab1e 11a3 cd09 bcbf 551d c5b4 d109 be3f
000002c0: c205 b21c cc42 d53f 5868 7130 ea86 c23f
000002d0: 326e 8528 9b53 9e3f 670d d2ed 76e0 c23f
000002e0: ab22 c669 7003 babf 2d2b 5207 4229 c0bf
000002f0: 17f8 4999 7edc a03f 8437 7bd5 a716 ae3f
00000300: c970 5d29 c241 b2bf c4b5 ee6a f43f d0bf
00000310: 4504 46f0 2022 94bf 3825 4574 2cf4 c03f
00000320: 4641 2067 1af4 c03f 54ab e2ac 86cd c93f
00000330: 1225 e412 0fdf 93bf 80cc 1155 6dc0 903f
00000340: 4c24 43d4 fee5 a6bf f839 afbd 041e ba3f
00000350: f95a e2b7 107a c0bf 433e e4be 3d3f c53f
00000360: b541 17d3 4514 b63f 707b efe6 1dea c7bf
00000370: 9022 517a 3012 80bf 7fbe 5f31 ed47 babf
00000380: 9582 4eb2 4c9a cb3f 5a5f 670b 1408 723f
00000390: bab0 b1ef 6317 ab3f 4abc a1f6 8113 aabf
000003a0: 7731 c64a 06cb c8bf 45ed 5a56 436d c63f
000003b0: ec1f cba7 2cf9 d03f 7a5d 9155 f0e9 b13f
000003c0: 6668 0b44 a39c d03f 9400 ef16 a2c9 c5bf
000003d0: 2622 3937 df59 c0bf cd93 f524 1d2d cd3f
000003e0: 2f54 23ba 246f c83f 3e34 5e4a ebeb 91bf
000003f0: bff9 8813 cd18 adbf 9312 7128 28d7 ac3f
00000400: 1a39 d4b0 4206 ba3f 6bc0 6b01 bd98 b73f
00000410: 2879 fb24 4dd8 a23f 01b2 1d26 5a4f cbbf
00000420: 91d7 9130 c87a c1bf 2535 62e6 9b50 b33f
00000430: 28a9 16e9 2242 c1bf 6012 07b0 ec69 923f
00000440: e5c1 1f01 5f08 c53f 4bf2 eb7e 8e61 c9bf
00000450: c75e fc10 61a2 cdbf 0c27 dfcf 63d1 b03f
00000460: b03e 1e27 32e1 96bf cdc3 de6c b416 bcbf
00000470: 48f5 111c f6e4 703f faf2 9460 7684 913f
00000480: 37e8 47c6 4f56 c0bf e8cd 422c 4a28 bb3f
00000490: b7f9 1c67 ae92 c4bf 16ec 0aa1 8123 b5bf
000004a0: e71b b22a 1570 d2bf 1db5 8143 c7a4 c4bf
000004b0: 1682 a5d8 5b42 753f 3e57 daf1 b359 d13f
000004c0: 2cdb a96d ee36 bebf 54de 6e38 368b 77bf
000004d0: 9b07 fed3 05cd b4bf 1708 f7a7 4b8c 6b3f
000004e0: 10e9 b915 ff0c c9bf c4c0 e117 5d03 c03f
000004f0: 9cf6 7d9d aa5a c03f af8e 30e5 5e6e b3bf
00000500: 3153 868e 4cce cebf af36 7719 ff52 c6bf
00000510: bce2 b960 4a49 b53f 33b4 9192 411e bf3f
00000520: bc82 4425 38a5 c2bf 6975 4ee1 80f3 b23f
00000530: ea4c 6a5e 1d20 cbbf 0783 ce89 2637 cbbf
00000540: f3b0 97a5 a625 c7bf 2d7f e95e 4280 bd3f
00000550: 10fd 7df3 0824 a6bf b332 b587 c0fc b2bf
00000560: 927e d6c5 b80f b3bf cb21 ed98 cf8f a4bf
00000570: db6c 6043 3760 c2bf 8c01 8e2e 59a5 bebf
00000580: b667 1f74 b826 ae3f a282 a72d 3355 93bf
00000590: b9a8 9cea 9464 85bf 085f 9598 0263 b13f
000005a0: 5e03 e5ad 2f63 b2bf 58ba f6a8 75ea 643f
000005b0: 8ef1 e79d e9f2 cd3f a76d 97e0 8e1f b13f
000005c0: eea6 555a 60a1 9c3f 2236 c409 c97d a4bf
000005d0: 3399 babd 6c2a ac3f 5ad5 92bc 5536 ac3f
000005e0: 9744 f733 ed83 973f 40a7 1508 8799 ca3f
000005f0: 3e24 41cc 85d0 bb3f 228e fabf ed2c 893f
00000600: 8389 8e77 179a b43f 4048 eeb1 74c7 bd3f
00000610: b436 8876 1e35 94bf 7a82 8717 23cf d13f
00000620: 02c9 daab a4f1 c6bf c32b efe9 bc47 b2bf
00000630: bcac 7a17 2a04 a0bf 41d0 fafc 1c9c b63f
00000640: 21bb 94af 9f0c 8b3f dee8 ac8a 9f33 9d3f
00000650: d62b 0294 e78a bebf 1ed4 df0d 2141 d4bf
00000660: 4147 1620 32fd c0bf e024 1e80 b38e c0bf
00000670: e9ff 92d0 8327 ad3f 5f5e 50cb 68c2 a2bf
00000680: 7448 c9f4 d69e ae3f 239d 27c9 4af6 9abf
00000690: 4bb7 1b6e eda0 b8bf cd29 0678 695e adbf
000006a0: cb92 a978 6689 873f 642c 4542 7889 bbbf
000006b0: 4470 3c96 5494 953f 0047 5c68 ae98 b2bf
000006c0: 1784 16e8 4d34 b03f 0f04 2195 bb31 923f
000006d0: 792c 7301 9d30 c1bf b1db 064f d7fa cabf
000006e0: 9e31 42cb 1a6b a4bf 5bc9 7ef0 8556 cfbf
000006f0: 8e6b 4252 e415 b1bf 3267 c0ba 4d00 b0bf
00000700: 16e2 c9d7 8146 9c3f 5cc6 7c2c 2032 a5bf
00000710: bbe5 7a2f cada af3f 8b96 2d9b cd34 92bf
00000720: eda3 f8fa 49e0 bfbf b78a 9f74 6f8a c6bf
00000730: 6752 4bbc ae8b d13f ccd8 1f6a 1bfc aa3f
00000740: 8a2e 9302 cb6e 7abf cbb7 95e2 8419 bf3f
00000750: 3f60 472d 4707 ba3f 9fc0 9e84 3ba1 85bf
00000760: fb90 b513 27a9 c4bf 24a7 0fd9 806a c3bf
00000770: 8b66 88af 4366 b63f c756 9678 dcbc a53f
00000780: 3b4c a87d f705 c13f 1c37 4c92 822f a93f
00000790: 831e 78e1 65e8 bd3f 9a5b 8498 0fcc c4bf
000007a0: 98fe fd9b 1db8 933f 14da 196d ccfe c23f
000007b0: 2865 10fb 435c c53f d445 74c9 fb82 d83f
000007c0: bb21 42dc a356 b43f 53e9 3164 6927 ab3f
000007d0: 8240 24d5 460c bd3f 9c56 35c6 3de0 b83f
000007e0: 6bb1 3d8e fe4b d6bf 13ef 9d03 bc18 ca3f
000007f0: cef0 9f14 5a3f cb3f c053 cd70 55c0 ad3f

b2 f8 [64, 1]
0.009398846015348994 0.0014165669172977095 0.02816022673946549 0.018052452604081167 0.03989368252459418 0.016892389750438698 -0.00858860421838018 0.0037234867352946483
0.031971172059857875 0.028357281060323362 0.0026464475283645692 0.03177041930490642 0.002512798273087291 0.04007012802247021 -0.009327945094360848 0.046227533593309826
0.00888985961440517 -0.0031445260595349637 0.011316496198413234 -0.001763774793537431 0.01688355718554139 0.01881130178678379 0.02345852454030779 0.0028333751486812153
0.04202367539107693 0.030177395908843094 0.05360082706883396 0.012827997040474685 0.0543411766481168 -0.0004217785557934551 0.034023109600977534 -0.005464306792573736
0.01855633168286551 0.04624559069757458 -0.013396089342337077 -0.002680137157103883 0.07785116226784992 0.02335348245628609 0.04853050175956049 -0.02042705314690961
0.037559275673499905 0.0008643533910192856 0.007724896359986859 0.025958125822408962 0.0028565491464988746 0.15403936628651346 0.005748180017833989 -0.02648389514023123
0.03867851069232264 0.0304094359786235 -0.06309407263996791 -0.01861405741557013 -0.005100572415059653 0.001215963516959271 -0.00015775427672066406 -0.06496445697749367
0.07906250271941989 0.010313594925835173 0.012814980038751679 -0.005224262764685045 0.016461711619006014 0.0033065506896897403 0.10573318469858656 0.019199293271340036
00000000: 336b 0cc2 b33f 833f 59dd 4525 8335 573f
00000010: 5d67 93d3 08d6 9c3f df3f 3096 577c 923f
00000020: e730 85db f16c a43f 3a20 1e16 3d4c 913f
00000030: d3cc e3f1 e696 81bf ed6f 2ab8 b780 6e3f
00000040: bee1 d284 865e a03f 2ec0 07eb b009 9d3f
00000050: 7d8c b7b2 00ae 653f 9f20 ca5f 3644 a03f
00000060: 4d7a f04c b895 643f 9d5b ce62 1284 a43f
00000070: fb0b f498 871a 83bf e77f eaa1 22ab a73f
00000080: 93ad 7ac2 d834 823f f4b4 c992 8cc2 69bf
00000090: bdb4 9e68 1a2d 873f 9772 91c3 cee5 5cbf
000000a0: 2be5 ce57 ec49 913f 5bb0 e017 4543 933f
000000b0: f325 daee 8205 983f 1773 3ab3 0436 673f
000000c0: 18bf ec8e 2084 a53f 6c17 07c2 d2e6 9e3f
000000d0: e12f 994e 9171 ab3f cf9f 189e 9045 8a3f
000000e0: a444 0f51 9bd2 ab3f 5304 711a 45a4 3bbf
000000f0: 7fbe 161e 7a6b a13f 26b9 82af bd61 76bf
00000100: 1cb7 d856 6e00 933f abb4 4287 80ad a73f
00000110: 9101 f5ac 686f 8bbf bca5 08ae a7f4 65bf
00000120: 8f60 e5c3 0dee b33f 5dff 96ad f9e9 973f
00000130: 7ae1 d46b fdd8 a83f dce6 e054 d4ea 94bf
00000140: fdb6 5b29 f83a a33f 0977 f7c5 b852 4c3f
00000150: 85b8 b213 24a4 7f3f 5d0b e455 c494 9a3f
00000160: ae73 3c25 9e66 673f 4ba2 3fdc 8fb7 c33f
00000170: af87 0253 678b 773f 2af0 fd1d 981e 9bbf
00000180: c088 f674 abcd a33f f06c 12b4 a623 9f3f
00000190: 6863 8fe2 ee26 b0bf aa09 623f 900f 93bf
000001a0: e2be 6a7b 56e4 74bf 9047 76e2 1eec 533f
000001b0: 1de9 2beb 5aad 24bf 72e8 1eba 82a1 b0bf
000001c0: e412 85af 703d b43f c304 4947 4b1f 853f
000001d0: 3499 5281 bd3e 8a3f 2041 855b 0966 75bf
000001e0: 03c5 28c4 56db 903f bea0 64e2 5616 6b3f
000001f0: 24e2 617a 5411 bb3f f7ad d3c2 faa8 933f

W3 f8 [10, 64]
0.09922594828239842 0.27814145669615453 -0.2976775050388227 -0.4900941916835556 -0.1986905018754407 -0.1101192313968142 0.10198691582868494 0.30405037157289966
-0.34573089625619086 -0.3403704317090257 -0.2800982398298218 0.7221380279816786 -0.29826362116059124 -0.2793343050842733 0.04952445867644937 -0.22044384681176188
-0.04457161551182982 -0.09204866362766008 0.2133501401349974 -0.0465271596075968 0.2486072178219361 -0.08386020985619658 0.20796511863005424 0.06422708645525119
-0.24707212777159085 0.03146732798724787 -0.06215197315707136 0.027320799059120774 0.5880533964398162 -0.1442728500238573 -0.37098589522959496 0.13132907307968245
0.004947700844074847 0.1541249520835463 0.026416604035735532 0.1800895406353923 -0.09057486397891457 -0.1647842479386222 -0.24606577965609333 -0.15637207966231684
-0.13313316499395703 -0.0719018581096021 0.39458841366909175 0.1018562511574133 -0.17030654858143987 -0.2634718364577784 0.20239554308849567 -0.10885085614452887
-0.08103654562770947 0.2373656981532384 0.01918518145635279 -0.06117225211487378 0.012823236065729719 0.08905296925291965 0.2573148907348579 0.14799210101973204
-0.09850550610491474 0.08833873022944126 -0.27878557792417613 0.011321117539432749 0.008185229049912552 -0.12784513530654246 -0.015471274014920662 0.35761046834811167
-0.1456427795400376 0.15098661224091064 -0.003887210117283465 0.12532224636207093 -0.0153536510664454 0.37080557622273197 -0.3853186048963613 0.1678932455582725
0.22515579484660003 0.1837957888809241 -0.04972584311364337 -0.09727173397232793 0.26235541724873285 -0.061143539143085415 0.01342136105791614 0.22753726731299231
0.18416834322370398 -0.2167345334777456 0.17686220289519605 -0.06642788172127198 0.15193284161384332 -0.1674182778747774 -0.7817184694990444 -0.23732887815598894
-0.1401984390938325 0.24730573593040872 0.6132268749037227 0.21429305025297418 0.11650673424306639 0.017439856619077255 0.6107178901065924 -0.10150257999427044
0.033647895744733786 0.3680037708556624 -0.14229532557233426 0.03187911242763663 -0.1192208566177137 0.028763054294151533 -0.41021090882486494 0.11508342404590662
-0.04339361202501722 -0.028945775966131838 0.0031061829393567958 0.06542049973994916 -0.11763201483726285 0.5650898947108234 0.0329654622458513 0.08701481537767626
0.1386203556014269 -0.293893535483971 -0.25764838669754864 0.07566328151086454 -0.011537167339630538 -0.12967823250482513 -0.024038908285891517 -0.06827588615896042
0.4044207900936282 0.1531975935957654 -0.2952361332093523 0.033507708312923094 0.014693174793610805 -0.01661365725009235 -0.00044152833208855555 -0.034725094409587966
-0.1741211129414826 0.04870839331168833 0.7755959198362394 -0.034741915198981725 0.1469891142001692 0.2721300267126517 -0.07567015078917048 -0.17680143900089293
0.0659585786400033 -0.39398069769585964 0.10438086594337664 -0.15092436806715706 -0.07973548507635858 0.19489597764800715 -0.1912184790404917 -0.14651309962465925
-0.09618235274296343 -0.3039694409021517 0.2067071220010621 -0.052271729426062244 -0.10257025823553592 0.060866400102544155 0.2145790625764717 0.39672080425736866
0.4166146185494513 -0.11292502446345315 -0.11475973976785707 0.164620371734761 0.25963303306115904 0.13015404463456076 -0.2590355975481954 -0.24153550301833762
0.008072418053177762 0.3280959271762928 -0.27475012984318725 -0.026092061068970347 -0.00547051527977196 0.2361275195970265 0.2662230464374984 -0.04020513998071052
0.2192625608680242 -0.11957742842447563 0.06070508806449509 -0.5484296126185796 0.0635123171820282 -0.03838839198227117 0.47705851397857363 0.05556596702277904
-0.029184826666687112 0.2737370677990519 -0.21194336868760247 0.013779287865464588 -0.11094400989466437 0.2772831636220259 0.047434771780075345 0.11393906756089975
-0.02207584862394473 -0.11952073025614546 -0.15508995167588666 0.0032985586413438197 -0.15890986311268726 -0.20864077404109627 0.18882538659725795 -0.06464236629784241
0.5857758717471452 -0.07672812628856927 0.3412840837735869 0.10940845485581625 -0.18009378409545143 0.06945077608287667 0.4343317476641709 -0.05465606245284461
0.16942051543071981 -0.06871180677572067 -0.2616026645590666 -0.15464682023421014 -0.20591722782430605 -0.08014055796178703 0.05960126876490799 -0.053414371224241954
-0.10953016432836145 -0.15089742434111453 -0.1114512765102375 0.059773411396687036 0.24147337195610363 0.3933352177655252 0.20508958700679678 0.16627187431392276
-0.16193333439032953 -0.03175542391397012 0.08710813396307096 0.05371284899951169 -0.523083426625971 -0.06938572783270622 -0.07191678960031415 -0.10503528352883665
-0.024959948419397218 0.16458901855024585 0.10433294920434241 -0.05617620681124145 -0.0981678137180836 -0.3076441049097883 -0.23671697744294748 0.2989814559691835
0.5877974738023722 0.25368268980843456 0.2565915852012678 -0.12176452804677154 0.21493206640109838 -0.2504047658260286 -0.018361649913945195 -0.0008933915060088862
0.03593933633531773 -0.21826231706210425 -0.015161175587820427 0.08693631272834948 -0.29229999444592936 -0.23756357358407773 -0.20017527347759287 0.018508770134359115
-0.3185407757462182 -0.19784655904007542 0.6602258985894545 -0.08948127428081175 -0.28887735567392125 0.14708815512996642 -0.2197794617292031 0.058481615285205325
00000000: da98 c92a df66 b93f 82fe 0ad3 11cd d13f
00000010: 3362 39f3 250d d3bf 2663 4f07 b45d dfbf
00000020: 1d59 cabb b06e c9bf 9e8d 8221 c630 bcbf
00000030: baa6 1a84 d01b ba3f 0f81 8fb0 8f75 d33f
00000040: 63c6 287b 7420 d6bf 7ccd 2d10 a1c8 d5bf
00000050: b51e ef2a 21ed d1bf c122 ac35 c11b e73f
00000060: 5629 9e4c c016 d3bf c738 3ffe 9ce0 d1bf
00000070: dd22 bc14 455b a93f 0c9a 5404 8137 ccbf
00000080: 3909 e83d 17d2 a6bf a1da eb4f 8090 b7bf
00000090: cb08 3db1 0e4f cb3f 91e2 c769 68d2 a7bf
000000a0: 3921 0c7f 5cd2 cf3f a89f c4da dc77 b5bf
000000b0: aac7 9cdb 999e ca3f 1eb9 d7b3 2f71 b03f
000000c0: 611c 443a 0fa0 cfbf 560a 3251 7c1c a03f
000000d0: f5d7 2e28 62d2 afbf 218a d6c9 fbf9 9b3f
000000e0: ee57 405b 55d1 e23f 9ace 4662 8877 c2bf
000000f0: 0775 d29f 3bbe d7bf d413 f21c 64cf c03f
00000100: 2b14 0d55 0a44 743f 9523 59ce 5dba c33f
00000110: 1f95 9e49 f40c 9b3f e4b9 b08f 2c0d c73f
00000120: d00b a10e ea2f b7bf 536b e575 a617 c5bf
00000130: 24d2 245e 157f cfbf bd1d 1414 0004 c4bf
00000140: fdbc d4ee 810a c1bf 2535 1a01 2968 b2bf
00000150: 93b6 05c3 ef40 d93f a33f 9d53 4013 ba3f
00000160: 7fd8 39e0 9acc c5bf bc34 40fa b8dc d0bf
00000170: 72eb 35df 18e8 c93f 3b48 4853 a6dd bbbf
00000180: 8977 40a1 cfbe b4bf b153 61cb ff61 ce3f
00000190: 7202 b1bb 47a5 933f f318 832c f851 afbf
000001a0: 22e4 3f9c 1143 8a3f 5390 8de6 2ccc b63f
000001b0: c8b8 1ee0 d877 d03f 1019 f9b8 67f1 c23f
000001c0: 4250 3227 a837 b9bf e73c 4ef5 5d9d b63f
000001d0: 90f8 f176 9fd7 d1bf 7533 b0ac 862f 873f
000001e0: 2a1c a3d8 6ac3 803f da11 8cb9 3a5d c0bf
000001f0: c44f 5f3f 67af 8fbf e1ca 9004 17e3 d63f
00000200: a5f1 822f 6ca4 c2bf 96b1 da80 8753 c33f
00000210: 45f9 710a 12d8 6fbf 810d cb32 8f0a c03f
00000220: 10fa a229 bc71 8fbf b744 c34f 47bb d73f
00000230: 717e a45d 0fa9 d8bf 9a2f 729f 867d c53f
00000240: fe7d afb3 e7d1 cc3f 616b 31d3 9e86 c73f
00000250: 01d5 e06b aa75 a9bf 2182 3ce4 cce6 b8bf
00000260: 61c0 4060 6eca d03f 1a66 f6b9 344e afbf
00000270: 0212 7e96 a87c 8b3f 6981 ddf0 f01f cd3f
00000280: 175a 8d09 d492 c73f abb1 990a f5bd cbbf
00000290: 50ac aab0 6ba3 c63f 3e11 89eb 6a01 b1bf
000002a0: 2bbc f50c 8972 c33f 8dc6 1c4e f66d c5bf
000002b0: a6ae a573 d603 e9bf 8dc5 09ed ca60 cebf
000002c0: 6adb 6dbf 05f2 c1bf b897 f7df b6a7 cf3f
000002d0: 37ac 97f7 8d9f e33f ac5d 4c65 f46d cb3f
000002e0: b375 56a5 62d3 bd3f cdaf 4df7 c0db 913f
000002f0: c2e0 a23e 008b e33f c5f6 88b5 12fc b9bf
00000300: 0c0f 9b07 4c3a a13f ca4d 28b0 5f8d d73f
00000310: 007a dab4 bb36 c2bf cfba 9a82 7552 a03f
00000320: 6c97 2c10 4285 bebf 8c16 1be6 0f74 9d3f
00000330: f95f 7741 e540 dabf 1dc0 9676 1b76 bd3f
00000340: ee69 0101 b037 a6bf 4d0b 8724 f6a3 9dbf
00000350: b74f 7a44 2372 693f abfd deda 65bf b03f
00000360: 1a4a b0b8 211d bebf 82a8 2267 3715 e23f
00000370: 02a6 7c5c d9e0 a03f 7589 505a 9a46 b63f
00000380: 3f1b efd2 4fbe c13f c634 dad4 26cf d2bf
00000390: a6eb aea8 4f7d d0bf 68e2 9837 ab5e b33f
000003a0: 932b 4c63 cca0 87bf 583f cedb 4b99 c0bf
000003b0: a483 add3 a79d 98bf c97c 284a 877a b1bf
000003c0: 4693 d1bc 07e2 d93f 4eec 288f fa9b c33f
000003d0: a5d3 2e18 26e5 d2bf f75e bc1e ec27 a13f
000003e0: 9829 b489 7417 8e3f 4372 39aa 2b03 91bf
000003f0: 91b8 1fbf 9def 3cbf 35ec add1 7cc7 a1bf
00000400: a93a d0c2 9949 c6bf e4f9 a078 4ef0 a83f
00000410: 2a72 d388 aed1 e83f eff9 283b b1c9 a1bf
00000420: 4aca 2d0f 8ad0 c23f 7563 3f0f 946a d13f
00000430: 9741 ec76 1e5f b3bf 6781 32f7 6da1 c6bf
00000440: e742 2652 a9e2 b03f 86f9 f6d0 fa36 d9bf
00000450: 0c12 8e55 b4b8 ba3f c14a 825c 7d51 c3bf
00000460: e4d0 bb74 8b69 b4bf ac60 0ff5 59f2 c83f
00000470: bb54 efdc d879 c8bf 7e68 a9f5 f0c0 c2bf
00000480: bbbd 7b1b 689f b8bf 121f ea3d 3c74 d3bf
00000490: d723 6c04 6175 ca3f 2ad5 c730 5cc3 aabf
000004a0: 72f5 a960 0b42 babf 2c3a bb7b e129 af3f
000004b0: 620d 16a4 5377 cb3f e467 fba7 df63 d93f
000004c0: 6925 6d5c d0a9 da3f bc74 f886 a7e8 bcbf
000004d0: 834e 33f1 e460 bdbf b196 6dc4 4712 c53f
000004e0: ae5f 7dde d39d d03f 56e3 9242 e3a8 c03f
000004f0: 4a09 fe0a 0a94 d0bf 95b1 24a7 a2ea cebf
00000500: 1ee7 4d9c 4588 803f 0712 4b0f 86ff d43f
00000510: 36e3 8f91 8195 d1bf c5e5 e793 e0b7 9abf
00000520: 9b91 8043 4068 76bf 006b 2d33 6d39 ce3f
00000530: b0fe 7863 cc09 d13f 514e b2a2 c495 a4bf
00000540: f42a 15ac cb10 cc3f 6a43 6c58 a09c bebf
00000550: 2728 e0bf bc14 af3f 195a 4b42 bc8c e1bf
00000560: 2fa3 30dd 5742 b03f 9f42 38b0 a4a7 a3bf
00000570: cb3e f46e 2088 de3f 9f53 4476 2473 ac3f
00000580: 2699 4a90 a0e2 9dbf 5997 797a e884 d13f
00000590: 7104 8fd6 f520 cbbf 8f68 f4b5 5038 8c3f
000005a0: 7147 2f9e d366 bcbf b03b dfe1 01bf d13f
000005b0: fb2f fad2 5e49 a83f 1e2a e958 1c2b bd3f
000005c0: 3e33 7c1f 0d9b 96bf 24e9 a41b e998 bebf
000005d0: 7b6d 31cf fcd9 c3bf 83df a12f 9405 6b3f
000005e0: 9758 8a8c 2857 c4bf 682f 8faa bdb4 cabf
000005f0: e67d 0b26 6e2b c83f e36e 2ff1 668c b0bf
00000600: 7d13 7e0a adbe e23f 4fbf 1759 74a4 b3bf
00000610: fcfb 9c32 99d7 d53f bdf9 8247 3102 bc3f
00000620: 8d90 7328 500d c7bf b230 f5ab 86c7 b13f
00000630: c141 f562 17cc db3f 31b5 8621 e1fb abbf
00000640: 99f0 854a 92af c53f 1267 f3d2 1897 b1bf
00000650: 35f8 341a 19be d0bf a70c ab8d 77cb c3bf
00000660: b21c 98e7 7e5b cabf fb70 8773 1784 b4bf
00000670: 0d70 4ab8 0e84 ae3f adcb 16e3 2059 abbf
00000680: dd3f b739 2b0a bcbf 9840 4c57 9b50 c3bf
00000690: fc7b b523 1288 bcbf e3fd 3cde 9e9a ae3f
000006a0: ec01 b475 99e8 ce3f 01c0 2a7a 672c d93f
000006b0: 17e0 7826 6040 ca3f 4422 3693 6548 c53f
000006c0: 705a ab43 3bba c4bf 7fbb 5c36 3f42 a0bf
000006d0: 1a44 96fa b74c b63f 12e1 a723 4080 ab3f
000006e0: 6a05 4e74 19bd e0bf e6c2 d957 43c3 b1bf
000006f0: 93dd 5d83 2369 b2bf 72b4 aea3 97e3 babf
00000700: 0744 afc8 198f 99bf 171e fac1 4011 c53f
00000710: 5656 ba6c 90b5 ba3f 5d9e 22b6 20c3 acbf
00000720: 9961 709d 8621 b9bf 5143 59e6 70b0 d3bf
00000730: 4341 43ee bd4c cebf fde0 df1d 8322 d33f
00000740: 25e2 d4a5 3ccf e23f 6c77 1252 563c d03f
00000750: 4a91 b71c ff6b d03f 0a15 c6c9 f52b bfbf
00000760: 2bf7 06da e482 cb3f ab0f ffb5 a106 d0bf
00000770: c523 8677 65cd 92bf b0ac 81a6 4f46 4dbf
00000780: fb77 6604 a466 a23f ce8e dd04 05f0 cbbf
00000790: 5e7f 8c8a d20c 8fbf 7aca 004c 7541 b63f
000007a0: 360a 3109 0bb5 d2bf 3fdb a1b1 7b68 cebf
000007b0: 53ed 86e6 579f c9bf 783e aa89 f6f3 923f
000007c0: 4470 91d9 f862 d4bf 5404 5a3a 0953 c9bf
000007d0: d43e 4d10 9220 e53f 4ff7 a3aa 3ee8 b6bf
000007e0: 382a cb72 f77c d2bf 54c2 f4df c8d3 c23f
000007f0: facd 3ac0 bb21 ccbf 6d69 2262 4df1 ad3f

b3 f8 [10, 1]
-0.05233112438750218 0.06550612338479979 0.0677292009086996 -0.05599932762857668 0.015287215871025847 0.10216736036945742 -0.08760372671187537 -0.017866051048896214
-0.1115940942607085 0.0747044235035761
00000000: 3d4d 9d27 25cb aabf e11d a061 02c5 b03f
00000010: 9017 e36e b356 b13f 0884 86a1 f1ab acbf
00000020: 2b1e b461 e74e 8f3f 3a66 81df a327 ba3f
00000030: cb37 3ca5 326d b6bf d0cd da63 7a4b 92bf
00000040: adc7 4639 6e91 bcbf 117c d03f d41f b33f
